126 96 6 18 6 40 25
_________________________________________________________________
Layer (type)                 Output Shape              Param #   
=================================================================
dense_1 (Dense)              (None, 298)               44700     
_________________________________________________________________
dropout_1 (Dropout)          (None, 298)               0         
_________________________________________________________________
dense_2 (Dense)              (None, 149)               44551     
_________________________________________________________________
dropout_2 (Dropout)          (None, 149)               0         
_________________________________________________________________
dense_3 (Dense)              (None, 25)                3750      
=================================================================
Total params: 93,001
Trainable params: 93,001
Non-trainable params: 0
_________________________________________________________________
model 1-1-1-1-1 loaded
_________________________________________________________________
Layer (type)                 Output Shape              Param #   
=================================================================
dense_4 (Dense)              (None, 298)               44700     
_________________________________________________________________
dropout_3 (Dropout)          (None, 298)               0         
_________________________________________________________________
dense_5 (Dense)              (None, 149)               44551     
_________________________________________________________________
dropout_4 (Dropout)          (None, 149)               0         
_________________________________________________________________
dense_6 (Dense)              (None, 19)                2850      
=================================================================
Total params: 92,101
Trainable params: 92,101
Non-trainable params: 0
_________________________________________________________________
model 2-1-1-1-1 loaded
_________________________________________________________________
Layer (type)                 Output Shape              Param #   
=================================================================
dense_10 (Dense)             (None, 250)               31500     
_________________________________________________________________
dropout_7 (Dropout)          (None, 250)               0         
_________________________________________________________________
dense_11 (Dense)             (None, 125)               31375     
_________________________________________________________________
dropout_8 (Dropout)          (None, 125)               0         
_________________________________________________________________
dense_12 (Dense)             (None, 25)                3150      
=================================================================
Total params: 66,025
Trainable params: 66,025
Non-trainable params: 0
_________________________________________________________________
model 1-1-2-1-1 loaded
_________________________________________________________________
Layer (type)                 Output Shape              Param #   
=================================================================
dense_13 (Dense)             (None, 250)               31500     
_________________________________________________________________
dropout_9 (Dropout)          (None, 250)               0         
_________________________________________________________________
dense_14 (Dense)             (None, 125)               31375     
_________________________________________________________________
dropout_10 (Dropout)         (None, 125)               0         
_________________________________________________________________
dense_15 (Dense)             (None, 19)                2394      
=================================================================
Total params: 65,269
Trainable params: 65,269
Non-trainable params: 0
_________________________________________________________________
model 2-1-2-1-1 loaded
_________________________________________________________________
Layer (type)                 Output Shape              Param #   
=================================================================
dense_19 (Dense)             (None, 58)                1740      
_________________________________________________________________
dropout_13 (Dropout)         (None, 58)                0         
_________________________________________________________________
dense_20 (Dense)             (None, 29)                1711      
_________________________________________________________________
dropout_14 (Dropout)         (None, 29)                0         
_________________________________________________________________
dense_21 (Dense)             (None, 25)                750       
=================================================================
Total params: 4,201
Trainable params: 4,201
Non-trainable params: 0
_________________________________________________________________
model 1-1-2-2-2 loaded
_________________________________________________________________
Layer (type)                 Output Shape              Param #   
=================================================================
dense_22 (Dense)             (None, 58)                1740      
_________________________________________________________________
dropout_15 (Dropout)         (None, 58)                0         
_________________________________________________________________
dense_23 (Dense)             (None, 29)                1711      
_________________________________________________________________
dropout_16 (Dropout)         (None, 29)                0         
_________________________________________________________________
dense_24 (Dense)             (None, 19)                570       
=================================================================
Total params: 4,021
Trainable params: 4,021
Non-trainable params: 0
_________________________________________________________________
model 2-1-2-2-2 loaded
__________________________________________________________________________________________________
Layer (type)                    Output Shape         Param #     Connected to                     
==================================================================================================
forex_input (InputLayer)        (None, 39, 6)        0                                            
__________________________________________________________________________________________________
lstm_1 (LSTM)                   (None, 240)          237120      forex_input[0][0]                
__________________________________________________________________________________________________
state_input (InputLayer)        (None, 23)           0                                            
__________________________________________________________________________________________________
concatenate_1 (Concatenate)     (None, 263)          0           lstm_1[0][0]                     
                                                                 state_input[0][0]                
__________________________________________________________________________________________________
dense_28 (Dense)                (None, 120)          31680       concatenate_1[0][0]              
__________________________________________________________________________________________________
dropout_19 (Dropout)            (None, 120)          0           dense_28[0][0]                   
__________________________________________________________________________________________________
dense_29 (Dense)                (None, 120)          14520       dropout_19[0][0]                 
__________________________________________________________________________________________________
dropout_20 (Dropout)            (None, 120)          0           dense_29[0][0]                   
__________________________________________________________________________________________________
dense_30 (Dense)                (None, 25)           3025        dropout_20[0][0]                 
==================================================================================================
Total params: 286,345
Trainable params: 286,345
Non-trainable params: 0
__________________________________________________________________________________________________
model 1-2-3-2-2 loaded
__________________________________________________________________________________________________
Layer (type)                    Output Shape         Param #     Connected to                     
==================================================================================================
forex_input (InputLayer)        (None, 39, 6)        0                                            
__________________________________________________________________________________________________
lstm_2 (LSTM)                   (None, 240)          237120      forex_input[0][0]                
__________________________________________________________________________________________________
state_input (InputLayer)        (None, 23)           0                                            
__________________________________________________________________________________________________
concatenate_2 (Concatenate)     (None, 263)          0           lstm_2[0][0]                     
                                                                 state_input[0][0]                
__________________________________________________________________________________________________
dense_31 (Dense)                (None, 120)          31680       concatenate_2[0][0]              
__________________________________________________________________________________________________
dropout_21 (Dropout)            (None, 120)          0           dense_31[0][0]                   
__________________________________________________________________________________________________
dense_32 (Dense)                (None, 120)          14520       dropout_21[0][0]                 
__________________________________________________________________________________________________
dropout_22 (Dropout)            (None, 120)          0           dense_32[0][0]                   
__________________________________________________________________________________________________
dense_33 (Dense)                (None, 19)           2299        dropout_22[0][0]                 
==================================================================================================
Total params: 285,619
Trainable params: 285,619
Non-trainable params: 0
__________________________________________________________________________________________________
model 2-2-3-2-2 loaded

###################################################################################
…
